Desktop/RVhackathon-main/chat_bot/data.pth (torch, 10983 bytes, 20 tensors)

l1.weight f4 [8, 69]
0.5946019 0.04603362 -0.021051377 -0.20325099 -0.074968785 0.7418522 -0.29822302 0.67281467
-0.16345541 0.058875587 -0.116552554 0.1089333 -0.1142406 0.23559661 -0.0029896663 -0.09275822
0.06930677 0.4873047 0.2154385 -0.025497235 -0.08670605 0.12754592 0.15220162 -0.073659584
-0.18234535 -0.098371275 -0.17242353 0.38200533 -0.17390051 -0.12699959 0.11113233 -0.058798037
-0.119870044 0.06314465 -0.090161294 -0.15023878 0.2124072 0.24379054 0.06837156 0.04385797
-0.102107264 0.119441964 0.09327716 0.05575839 -0.0435487 0.03234359 -0.19069485 -0.073271886
-0.042131282 0.102458194 0.13925064 0.13182223 -0.12572624 0.96940905 0.5699918 -0.1770177
-0.016061792 -0.07102064 0.28858954 -0.061413445 0.07048113 -0.08266167 -0.04669753 -0.02505783
-0.008777737 0.08156976 0.44653744 -0.012627039 0.02011979 0.5702618 0.09988876 -0.07014538
-0.054850623 0.06790179 0.9000987 -0.20793186 0.7594262 -0.17276298 -0.10742617 -0.10386955
-0.016813537 -0.113546856 0.18080103 -0.031767834 -0.025424985 -0.028622817 0.5216269 0.22788216
-0.13222031 -0.012043339 0.115481295 0.17172493 -0.1734051 -0.22293834 -0.07884987 -0.21026716
0.43711412 -0.16691314 -0.24607493 0.05648416 0.053071924 -0.2062352 -0.08903672 0.0026377738
-0.0860324 0.33505788 0.44227064 0.0032762433 0.0049627186 -0.05438996 0.12095618 0.1665926
-0.015942955 -0.15159716 -0.04855464 -0.0130139785 -0.15047957 -0.12156334 0.18855332 0.10146823
0.37208274 -0.0067763077 0.87716734 0.3917846 -0.07586577 -0.15255918 -0.028310325 0.2724641
-0.0045817047 0.03287672 0.019154519 0.1744079 -0.010250738 -0.073699094 0.060406417 0.5097939
0.03695119 -0.08542446 -0.05873734 -0.10393498 0.20004347 0.11514437 -0.010430604 -0.62722504
0.15023705 -0.15084049 0.2044211 0.08692702 0.03767472 -0.08423155 0.08314169 0.061475404
0.19225971 0.16141792 -0.009866262 0.039763384 0.06213196 0.15097782 0.18092659 -0.051755644
0.061987545 0.04846732 0.33792916 0.10388499 0.20811066 -0.1879511 0.114532046 0.26408228
0.23071955 -0.081966415 0.17751706 -0.14094445 0.1093643 0.1640396 0.004324829 0.048063174
-0.048275024 -0.025844702 0.081845015 0.038870618 -0.016486222 0.096374385 -0.010346609 -0.0833459
0.11091248 -0.10391874 0.10189811 -0.026436772 0.050370604 0.020849021 0.029361766 -0.46685857
-0.08293898 0.17262861 0.06115623 0.21485996 0.1351287 0.054242577 0.047646213 -0.06497038
-0.033034705 0.080170974 0.35624033 -0.041980445 -0.071935736 0.037169818 0.1486391 0.6654152
0.082992926 -0.11514592 -0.061409634 -0.019512795 -0.10930612 -0.080873735 0.019809932 -0.117813185
-0.056748763 -0.04339441 -0.16159116 -0.04922507 -0.10557137 -0.12308515 -0.16042276 -0.094039604
-0.099074595 0.25963676 -0.114981584 -0.08280452 0.0022926636 -0.05604952 -0.061970674 -0.12498642
-0.108528174 -0.12767895 0.599476 -0.10574777 -0.1329029 -0.1557198 0.060057145 -0.19121681
0.081985615 0.027840583 -0.055799972 0.017009087 0.44850323 -0.031594854 0.026689162 0.03374559
-0.112705395 -0.044840295 -0.04418533 -0.12819664 0.0016685501 -0.12754866 -0.06053784 -0.07595314
00000000: d537 183f c08d 3c3d f073 acbc 0721 50be
00000010: 3c89 99bd 07ea 3d3f b0b0 98be 953d 2c3f
00000020: db60 27be 8727 713d 1bb3 eebd 6c18 df3d
00000030: faf6 e9bd 3d40 713e 47ee 43bb 06f8 bdbd
00000040: b5f0 8d3d 0080 f93e e99b 5c3e 94df d0bc
00000050: f192 b1bd 669b 023e beda 1b3e d6da 96bd
00000060: bdb8 3abe e176 c9bd cb8f 30be 3496 c33e
00000070: fa12 32be 2e0c 02be 5999 e33d 36d6 70bd
00000080: 6d7e f5bd fb51 813d 7ca6 b8bd 32d8 19be
00000090: 4681 593e 3aa4 793e 6306 8c3d 6aa4 333d
000000a0: 9d1d d1bd fd9d f43d 1808 bf3d e962 643d
000000b0: 1f60 32bd b67a 043d 8345 43be 920f 96bd
000000c0: da91 2cbd 9ad5 d13d b897 0e3e 68fc 063e
000000d0: 61be 00be 312b 783f fcea 113f 2144 35be
000000e0: 0594 83bc 4573 91bd 02c2 933e aa8c 7bbd
000000f0: 6958 903d 864a a9bd e945 3fbd 1446 cdbc
00000100: 7fd0 0fbc 0c0e a73d 8ea0 e43e a4e1 4ebc
00000110: 42d2 a43c adfc 113f 7a92 cc3d 62a8 8fbd
00000120: 0cab 60bd 1810 8b3d de6c 663f 17ec 54be
00000130: c169 423f c7e8 30be 4002 dcbd 8fb9 d4bd
00000140: 8bbc 89bc 418b e8bd e823 393e fd1e 02bd
00000150: 0f48 d0bc 667a eabc 5789 053f f159 693e
00000160: c364 07be 6d51 45bc 7581 ec3d a9d8 2f3e
00000170: 1b91 31be f349 64be 0a7c a1bd 4650 57be
00000180: 6ccd df3e 47eb 2abe 11fb 7bbe ef5b 673d
00000190: f261 593d 522f 53be e258 b6bd 80de 2c3b
000001a0: c131 b0bd b58c ab3e 4c71 e23e 3eb6 563b
000001b0: 4d9e a23b 02c8 5ebd e0b7 f73d 4097 2a3e
000001c0: cd9a 82bc 493c 1bbe 3be1 46bd 9538 55bc
000001d0: 5117 1abe 33f6 f8bd 1f14 413e 93ce cf3d
000001e0: a181 be3e ca0b debb 0a8e 603f fe97 c83e
000001f0: 835f 9bbd 7938 1cbe 0eeb e7bc 6a80 8b3e
00000200: 2022 96bb bda9 063d f0e9 9c3c fc97 323e
00000210: b6f2 27bc 8def 96bd b86c 773d da81 023f
00000220: 225a 173d 05f3 aebd 9196 70bd dddb d4bd
00000230: 32d8 4c3e d0d0 eb3d 20e5 2abc d291 20bf
00000240: bed7 193e ee75 1abe c453 513e cb06 b23d
00000250: cf50 1a3d 9781 acbd 3146 aa3d a2cd 7b3d
00000260: bbdf 443e bd4a 253e 1aa6 21bc eede 223d
00000270: 157e 7e3d ee99 1a3e d244 393e bafd 53bd
00000280: a7e6 7d3d ab85 463d 0d05 ad3e a7c1 d43d
00000290: f61a 553e 4176 40be c78f ea3d cb35 873e
000002a0: bf41 6c3e 02de a7bd 08c7 353e be53 10be
000002b0: 64fa df3d fff9 273e 4cb7 8d3b e4dd 443d
000002c0: 08bc 45bd 45b8 d3bc 5c9e a73d cc36 1f3d
000002d0: 1d0e 87bc ef5f c53d d384 29bc 41b1 aabd
000002e0: 1526 e33d 59d3 d4bd f5af d03d ee91 d8bc
000002f0: 6851 4e3d 91cb aa3c 1688 f03c 1608 efbe
00000300: e9db a9bd 8ec5 303e f47e 7a3d 4004 5c3e
00000310: 2e5f 0a3e 772d 5e3d ad28 433d 310f 85bd
00000320: 664f 07bd ae30 a43d 2265 b63e b0f3 2bbd
00000330: 0b53 93bd 613f 183d d934 183e a758 2a3f
00000340: 32f8 a93d a0d1 ebbd ab88 7bbd 4cd9 9fbc
00000350: e3db dfbd 21a1 a5bd 7048 a23c 0a48 f1bd
00000360: 6471 68bd 56be 31bd 2778 25be 3aa0 49bd
00000370: cd35 d8bd 1114 fcbd dd45 24be d697 c0bd
00000380: 9fe7 cabd 1cef 843e 777b ebbd 6b95 a9bd
00000390: 8340 163b 2e94 65bd f6d4 7dbd e1f8 ffbd
000003a0: 0544 debd 45be 02be 4277 193f 4992 d8bd
000003b0: b317 08be 0375 1fbe 7bfe 753d 57ce 43be
000003c0: 13e8 a73d ef11 e43c 838e 64bd a456 8b3c
000003d0: 37a2 e53e 9b69 01bd 3ba3 da3c d138 0a3d
000003e0: 16d2 e6bd 75aa 37bd adfb 34bd fb45 03be
000003f0: 40b3 da3a 1e9c 02be 87f6 77bd 528d 9bbd

l1.bias f4 [8]
0.16902465 0.26979265 0.30134922 0.14353432 0.23166907 0.15113395 0.15287137 -0.009964646
00000000: cc14 2d3e 4322 8a3e 724a 9a3e a9fa 123e
00000010: a83a 6d3e dcc2 1a3e 508a 1c3e c142 23bc

l2.weight f4 [8, 8]
0.813554 0.67913896 -0.43754983 0.8425458 -0.34545755 -0.7050464 1.0870172 0.67675585
0.106474064 0.21691051 0.3352077 -0.33742696 0.329829 -0.26228717 0.09878685 -0.40387136
-0.009944741 0.21789546 0.16282336 0.15772715 0.32806087 -0.04455008 -0.42973557 -0.29781827
0.3230081 0.79471195 -0.79581624 0.89769614 -0.5037382 -0.2716578 1.0953678 0.67655826
0.6213405 0.57356393 0.20915817 0.27520052 -0.36017165 -0.20473775 0.8922019 0.57336634
-0.014531851 -0.3088234 0.13954255 0.029012531 0.033347636 -0.028285226 0.090160295 0.06558767
0.588326 0.65518 -0.43907228 0.7038849 -0.7423827 -0.16841328 0.65725064 0.17941117
0.7296165 0.6455904 -0.57774895 0.36772853 0.16957696 -0.42925352 0.6127361 0.37334612
00000000: 1345 503f 0ddc 2d3f 8806 e0be 15b1 573f
00000010: d0df b0be ec7d 34bf 6123 8b3f df3f 2d3f
00000020: 130f da3d ca1d 5e3e 58a0 ab3e 3ac3 acbe
00000030: 59df a83e 814a 86be c350 ca3d 3ac8 cebe
00000040: 44ef 22bc fd1f 5f3e 2bbb 263e 3a83 213e
00000050: 98f7 a73e 257a 36bd 4d06 dcbe a37b 98be
00000060: 5161 a53e 3e72 4b3f 9dba 4bbf 6acf 653f
00000070: fdf4 00bf bb16 8bbe 0335 8c3f ec32 2d3f
00000080: 2c10 1f3f 16d5 123f 8f2d 563e 15e7 8c3e
00000090: 6b68 b8be c6a6 51be 5867 643f 23c8 123f
000000a0: 0017 6ebc 1a1e 9ebe 3ee4 0e3e b0ab ed3c
000000b0: 8897 083d 6bb6 e7bc f6a5 b83d d452 863d
000000c0: 889c 163f e0b9 273f 15ce e0be cd31 343f
000000d0: cb0c 3ebf 8874 2cbe 9441 283f 90b7 373e
000000e0: 26c8 3a3f 6a45 253f 5be7 13bf ea46 bc3e
000000f0: 95a5 2d3e 1ec7 dbbe 46dc 1c3f 3927 bf3e

l2.bias f4 [8]
0.33430645 -0.1745473 -0.08537324 0.22958153 -0.052129533 -0.1938833 0.34750816 -0.07139463
00000000: 372a ab3e 87bc 32be 2ad8 aebd 6c17 6b3e
00000010: c785 55bd 5889 46be 97ec b13e 5937 92bd

l3.weight f4 [8, 8]
-0.05390692 0.09748902 0.19565527 -0.35572648 -0.07393415 0.18423232 0.29560116 0.22603151
0.6162528 -0.37524575 -0.39024723 0.8265555 0.32685372 -0.20981269 0.46760434 0.7722676
0.7877101 0.08401789 0.09389363 0.74470943 0.6980705 -0.21771258 0.48369232 0.70568186
0.60830647 -0.36220148 -0.080569014 0.6871888 0.28887126 -0.21086709 0.533937 0.6415583
-0.15229008 -0.009163396 -0.10281977 -0.004020072 0.06563091 0.10309984 0.19905987 -0.2791828
0.73364484 0.06617789 -0.20832565 0.86903286 0.7638964 0.2565805 0.6683018 0.5700699
0.03984821 0.31745097 0.06474206 -0.21492048 0.066670805 -0.21361531 0.07984936 -0.34798166
-0.16957018 0.19580027 0.024462253 0.2977884 -0.3516958 -0.18192653 -0.082651794 0.27747586
00000000: 81cd 5cbd 53a8 c73d db59 483e c821 b6be
00000010: ca6a 97bd 66a7 3c3e 0959 973e ce74 673e
00000020: bec2 1d3f 3620 c0be 7cce c7be 2499 533f
00000030: 5f59 a73e 23d9 56be d669 ef3e 54b3 453f
00000040: 5ea7 493f 9211 ac3d 4e4b c03d 47a5 3e3f
00000050: c0b4 323f 0cf0 5ebe 85a6 f73e 91a7 343f
00000060: f9b9 1b3f 7972 b9be 5e01 a5bd 9beb 2f3f
00000070: efe6 933e 8bed 57be 18b0 083f 2a3d 243f
00000080: eef1 1bbe 1222 16bc 2c93 d2bd cfba 83bb
00000090: 8069 863d 0226 d33d 5ad6 4b3e 0cf1 8ebe
000000a0: 26d0 3b3f 4688 873d 5253 55be f078 5e3f
000000b0: b78e 433f 855e 833e d415 2b3f 1af0 113f
000000c0: e037 233d ef88 a23e 7c97 843d 1d14 5cbe
000000d0: b48a 883d f9bd 5abe 1088 a33d a72a b2be
000000e0: cea3 2dbe de7f 483e 1065 c83c b977 983e
000000f0: 7911 b4be f34a 3abe 5845 a9bd 5111 8e3e

l3.bias f4 [8]
-0.39204594 0.11491112 -0.11582198 -0.11240721 0.4361926 0.2888238 -0.29352936 -0.2435531
00000000: 3fba c8be 8556 eb3d 1334 edbd c035 e6bd
00000010: a354 df3e b7e0 933e 7b49 96be fc65 79be

l4.weight f4 [8, 8]
-0.16678315 0.22187857 0.26813486 0.60094255 -0.065597124 0.6525168 -0.069047004 0.21684042
0.2694337 -0.34448022 0.15298513 -0.26982644 -0.15637805 -0.280829 0.09668994 -0.310746
0.11221826 -0.29756057 -0.23651968 -0.18741553 0.35189453 -0.13528417 0.25748464 0.25999567
0.22869602 -0.0047188997 -0.0002939403 -0.15976892 0.022608668 -0.007074386 0.2933052 0.30344263
-0.2692717 -0.29410556 0.1363076 -0.27375963 -0.048510402 0.021718562 -0.28479692 -0.11168088
-0.29179084 -0.1799866 -0.06186524 -0.08805737 -0.09353748 -0.32619894 -0.29751897 0.23226622
0.32235512 0.7630607 0.722745 0.58578944 -0.27885652 0.48976544 0.2755287 -0.0044570565
-0.17499317 0.64629817 0.7414445 0.5765966 -0.08370026 0.5813937 0.062419057 0.12814808
00000000: 34c9 2abe 2334 633e f948 893e 5fd7 193f
00000010: c957 86bd 570b 273f 8468 8dbd 6a0b 5e3e
00000020: 37f3 893e b65f b0be 22a8 1c3e b126 8abe
00000030: 9121 20be d2c8 8fbe 6005 c63d 1a1a 9fbe
00000040: b0d2 e53d dc59 98be 3732 72be dbe9 3fbe
00000050: 852b b43e ef87 0abe 07d5 833e 271e 853e
00000060: 4a2f 6a3e 00a1 9abb 001c 9ab9 779a 23be
00000070: d035 b93c 40d0 e7bb 192c 963e d55c 9b3e
00000080: fbdd 89be 0195 96be 3894 0b3e 392a 8cbe
00000090: d8b2 46bd 20eb b13c e7d0 91be f2b8 e4bd
000000a0: 9c65 95be 684e 38be 6866 7dbd 6c57 b4bd
000000b0: 9490 bfbd 8c03 a7be 6854 98be 32d7 6d3e
000000c0: bb0b a53e f257 433f d105 393f 4cf6 153f
000000d0: 48c6 8ebe 89c2 fa3e 1912 8d3e 800c 92bb
000000e0: 6931 33be cc73 253f 4fcf 3d3f d69b 133f
000000f0: 0b6b abbd 38d6 143f 20ab 7f3d 4039 033e

l4.bias f4 [8]
-0.11426877 -0.104078606 -0.16925551 -0.14734748 -0.13392308 -0.1746718 -0.088364184 -0.24627703
00000000: bf05 eabd 2a27 d5bd 5151 2dbe 42e2 16be
00000010: 2223 09be 2add 32be 48f8 b4bd 0c30 7cbe

l5.weight f4 [8, 8]
0.028614696 -0.21360688 0.030162573 -0.1850671 0.099034905 -0.053189367 0.50471014 0.6717628
0.118626386 0.26319548 0.22676477 0.015191585 -0.27941915 0.0016700625 -0.33189487 -0.17069107
0.5808333 -0.18030763 0.17035517 0.0801872 0.25903323 -0.21415968 1.11499 0.7562046
0.5194135 -0.06814727 -0.28362983 -0.14080112 -0.051011145 -0.03364736 0.38048902 0.57509375
0.60626936 -0.10414305 0.14897522 -0.24685726 0.19535461 -0.020043224 0.33438292 0.4780525
0.185515 0.24300328 -0.09199265 -0.0056524873 -0.05128187 0.27672008 -0.14695492 -0.31193048
0.47421136 0.12970006 0.27763852 -0.05866754 -0.026703864 0.22609869 0.5292525 0.80955815
0.22074059 -0.10318902 0.20318678 -0.24983488 0.33337566 -0.22078031 0.45105785 0.28680968
00000000: 5e69 ea3c c3bb 5abe 8017 f73c 3b82 3dbe
00000010: d0d2 ca3d 18dd 59bd af34 013f a6f8 2b3f
00000020: 64f2 f23d 8fc1 863e 0635 683e 20e6 783c
00000030: 0710 8fbe 00e6 da3a 20ee a9be a4c9 2ebe
00000040: 7eb1 143f 90a2 38be 9671 2e3e 3039 a43d
00000050: 01a0 843e ad4c 5bbe feb7 8e3f a096 413f
00000060: 48f8 043f cc90 8bbd ee37 91be 2b2e 10be
00000070: 10f1 50bd d0d1 09bd 75cf c23e 5839 133f
00000080: 7834 1b3f f448 d5bd f68c 183e 26c8 7cbe
00000090: 0a0b 483e b031 a4bc 3d34 ab3e 4cc3 f43e
000000a0: a5f7 3d3e dad5 783e a466 bcbd 8038 b9bb
000000b0: f00c 52bd 41ae 8d3e 5a7b 16be 5ab5 9fbe
000000c0: d5cb f23e 18d0 043e a326 8e3e 604d 70bd
000000d0: 10c2 dabc 6a86 673e 187d 073f 343f 4f3f
000000e0: d209 623e c454 d3bd 3210 503e b7d4 7fbe
000000f0: 37b0 aa3e 3c14 62be 0ef1 e63e b8d8 923e

l5.bias f4 [8]
-0.20913783 -0.108189195 0.34925437 0.0024758265 -0.17266284 0.8827504 -0.015526178 -0.4975967
00000000: 3a28 56be 4c92 ddbd 78d1 b23e 7a41 223b
00000010: 87ce 30be eefb 613f 8361 7ebc ffc4 febe

l6.weight f4 [8, 8]
-0.22505467 0.10100219 0.24256372 0.28553307 -0.30947804 0.6958602 0.131025 -0.46994013
0.40695313 -0.2888213 0.54473615 0.54846084 0.76292545 0.08573509 0.2248568 0.5186347
-0.15556018 -0.21636447 -0.35397956 -0.31802845 -0.21515241 0.04579614 0.1426498 0.29942808
-0.45882908 -0.2842958 -0.07444381 -0.101677574 -0.020580284 0.45155147 0.1611147 0.051123194
0.27429006 -0.27075815 -0.12720901 -0.2441966 0.3410661 -0.22006597 -0.13692912 -0.32681668
-0.2824886 -0.01640907 0.29963645 -0.25509772 -0.10089985 0.54134285 -0.3009998 0.16200878
-0.26143724 0.067964196 0.22772416 -0.16262352 -0.3165427 0.18348098 -0.22825377 -0.058859885
0.657832 -0.12461272 0.6742332 0.5008068 0.2828693 -0.24881244 0.8252545 0.3185311
00000000: bb74 66be 3cda ce3d a062 783e 6431 923e
00000010: e873 9ebe e523 323f 6b2b 063e fe9b f0be
00000020: 295c d03e 63e0 93be d473 0b3f ee67 0c3f
00000030: 154f 433f e195 af3d dc40 663e 3ec5 043f
00000040: 2b4b 1fbe a68e 5dbe cf3c b5be a0d4 a2be
00000050: ea50 5cbe bc94 3b3d ca12 123e a34e 993e
00000060: a5eb eabe 388f 91be ff75 98bd 553c d0bd
00000070: fc97 a8bc c131 e73e 40fb 243e 8e66 513d
00000080: bf6f 8c3e d0a0 8abe 1443 02be ac0e 7abe
00000090: 37a0 ae3e f958 61be 2637 0cbe 8454 a7be
000000a0: 59a2 90be 506c 86bc f369 993e 2b9c 82be
000000b0: 95a4 cebd 7295 0a3f a51c 9abe a1e5 253e
000000c0: 1adb 85be d030 8b3d 8630 693e c886 26be
000000d0: e311 a2be 70e2 3b3e 5bbb 69be 1017 71bd
000000e0: ae67 283f f434 ffbd 8c9a 2c3f e034 003f
000000f0: 3fd4 903e b0c8 7ebe e143 533f 8216 a33e

l6.bias f4 [8]
0.53030205 0.14373271 -0.03351791 0.7639957 -0.31166834 0.44830632 -0.27374408 -0.03114089
00000000: e0c1 073f ab2e 133e 134a 09bd 3995 433f
00000010: fe92 9fbe 6888 e53e 2f28 8cbe 2e1b ffbc

l7.weight f4 [8, 8]
0.71418047 0.35408217 -0.087188475 0.5864678 -0.33610985 0.24451263 -0.1504257 -0.13797282
-0.40148416 0.19563474 0.20034924 -0.11258285 0.30815187 0.11528788 0.07317284 0.36992264
-0.15545085 -0.15576996 0.078439385 -0.35929307 0.12541088 0.2863299 0.049820483 0.0058847386
-0.031627547 0.4528046 -0.012155056 -0.26713225 0.04398322 -0.11029222 -0.37490594 0.42708766
-0.31701666 0.39301726 0.13374215 0.17912127 -0.30053532 -0.1926329 0.21610418 0.060450472
0.53810537 -0.1910513 0.35958698 0.18339653 0.16490117 0.73373866 0.018354256 0.028871313
0.63315535 0.3947477 -0.08539599 0.510265 0.08624011 0.7256592 0.18858986 -0.52098477
0.5007177 -0.048539657 -0.292733 0.57641333 -0.057792693 0.8042092 -0.18459974 -0.46724144
00000000: 88d4 363f 424a b53e df8f b2bd c122 163f
00000010: 9716 acbe 8561 7a3e 3209 1abe bf48 0dbe
00000020: 558f cdbe 7954 483e 5a28 4d3e d691 e6bd
00000030: 15c6 9d3e 0d1c ec3d a4db 953d 8066 bd3e
00000040: 822e 1fbe 2982 1fbe d4a4 a03d 43f5 b7be
00000050: b66b 003e d599 923e 9010 4c3d c4d4 c03b
00000060: e38b 01bd 01d6 e73e 0026 47bc 8fc5 88be
00000070: c027 343d e3e0 e1bd acf3 bfbe 3cab da3e
00000080: 0250 a2be 8f39 c93e b4f3 083e 916b 373e
00000090: c4df 99be 8f41 45be 6a4a 5d3e ea9a 773d
000000a0: 46c1 093f f4a2 43be c91b b83e 4dcc 3b3e
000000b0: dadb 283e 4cd6 3b3f aa5b 963c 8883 ec3c
000000c0: 7816 223f 5f1c ca3e 18e4 aebd baa0 023f
000000d0: a89e b03d cdc4 393f b31d 413e 425f 05bf
000000e0: 092f 003f 85d1 46bd 1ae1 95be d38f 133f
000000f0: 08b8 6cbd a7e0 4d3f b707 3dbe 453a efbe

l7.bias f4 [8]
0.13249701 -0.39395848 0.0077430536 0.34740445 -0.42151865 0.36832923 0.69545066 0.5449062
00000000: 4cad 073e edb4 c9be 71b9 fd3b ffde b13e
00000010: 4bd1 d7be a695 bc3e 0e09 323f f97e 0b3f

l8.weight f4 [8, 8]
0.7736379 0.0018203395 0.015009113 -0.40066203 0.10846092 0.7200904 0.52898604 0.72932965
-0.2523731 0.17198895 -0.03436206 -0.009590188 0.50962275 -0.27819028 0.12396608 0.43487808
-0.21853246 -0.1284662 -0.09245008 0.019533664 -0.22565866 -0.10551539 0.30522332 -0.32514924
0.09735582 -0.15088445 -0.11380829 -0.97363365 0.25625977 0.4663318 0.21214762 0.44666085
-0.20678912 -0.20675284 -0.031289697 -0.32202107 -0.32357606 -0.17410317 0.27294084 -0.3096337
0.20234524 0.118192494 0.24486397 -0.06434303 0.17850053 0.32083136 0.2656756 0.13806571
-0.1386877 0.102084726 0.1664209 -0.24800003 0.046569645 0.19124189 -0.34985235 0.288393
-0.06249108 0.5841323 -0.26385668 0.45816842 0.5502519 -0.28297096 0.18098296 -0.23459975
00000000: 220d 463f 7598 ee3a c8e8 753c 9323 cdbe
00000010: c220 de3d d857 383f a16b 073f 59b5 3a3f
00000020: 0c37 81be df1d 303e 3bbf 0cbd 2a20 1dbc
00000030: a376 023f f56e 8ebe eee1 fd3d 57a8 de3e
00000040: f9c6 5fbe a58c 03be 7856 bdbd 1005 a03c
00000050: 1013 67be 7418 d8bd 3b46 9c3e f679 a6be
00000060: 7d62 c73d 7481 1abe 5214 e9bd 0e40 79bf
00000070: 7b34 833e 0bc3 ee3e 3a3d 593e bbb0 e43e
00000080: 87c0 53be 04b7 53be a029 00bd f2df a4be
00000090: c3ab a5be 1a48 32be e7be 8b3e 4f88 9ebe
000000a0: 9733 4f3e e80e f23d 9fbd 7a3e 47c6 83bd
000000b0: d8c8 363e 0244 a43e a206 883e 1961 0d3e
000000c0: 2604 0ebe cc11 d13d 3e6a 2a3e b8f3 7dbe
000000d0: d0bf 3e3d ead4 433e d91f b3be 3fa8 933e
000000e0: a6f6 7fbd b289 153f 3918 87be 0d95 ea3e
000000f0: 4fdd 0c3f 92e1 90be 9953 393e eb3a 70be

l8.bias f4 [8]
0.49932632 0.16065252 -0.19341643 -0.22562568 0.010872647 -0.08159065 -0.35237926 -0.017646836
00000000: b3a7 ff3e 1882 243e f50e 46be 6b0a 67be
00000010: 3023 323c 0019 a7bd 0e6b b4be 1990 90bc

l9.weight f4 [8, 8]
0.35810846 0.013991366 0.037662536 0.47172296 -0.16541837 -0.17371958 0.30137792 -0.11921245
-0.20643084 0.6535018 -0.06665179 0.09591319 0.15991607 0.4238527 -0.1880187 0.6387207
-0.120593846 -0.2560703 -0.18229456 0.038914025 -0.16374497 -0.13769144 0.023034006 -0.07844874
0.31382453 -0.13482259 -0.22057451 -0.15836073 0.05705348 0.17723066 0.2743266 -0.048564166
0.39693236 -0.079994194 0.3212094 -0.20508812 0.3097336 0.044717353 -0.14888357 0.04589567
0.38512954 0.4016484 0.013533682 0.6028042 0.11708212 0.16647868 0.1967251 -0.45939994
0.16068894 0.13520579 0.1707994 0.40241724 -0.2064572 0.28940177 -0.032638103 -0.15951489
0.3872042 -0.25907478 -0.16462487 0.015690105 0.1971974 0.019306453 0.07035416 -0.33200738
00000000: fe59 b73e 0b3c 653c 0844 1a3d ac85 f13e
00000010: 6f63 29be 8ce3 31be 354e 9a3e a825 f4bd
00000020: 9b62 53be e54b 273f bc80 88bd 226e c43d
00000030: 0ac1 233e 3903 d93e f987 40be 3383 233f
00000040: e8f9 f6bd a51b 83be 6dab 3abe 5064 1f3d
00000050: c3ac 27be fcfe 0cbe d0b1 bc3c bca9 a0bd
00000060: 9cad a03e ef0e 0abe 49de 61be 5129 22be
00000070: e9b0 693d f47b 353e 8974 8c3e 38eb 46bd
00000080: b83a cb3e ffd3 a3bd 8f75 a43e 9f02 52be
00000090: 6795 9e3e 8b29 373d ef74 18be 19fd 3b3d
000000a0: b32f c53e dca4 cd3e 60bc 5d3c 6051 1a3f
000000b0: c0c8 ef3d 6379 2a3e 4e72 493e 7836 ebbe
000000c0: a48b 243e 6373 0a3e 0ae6 2e3e a209 ce3e
000000d0: 8469 53be 782c 943e 88af 05bd df57 23be
000000e0: a13f c63e 73a5 84be 6c93 28be 8988 803c
000000f0: 1dee 493e 9128 9e3c d815 903d dffc a9be

l9.bias f4 [8]
-0.022371937 -0.05898555 -0.17394303 0.28349018 0.10559355 0.0550754 -0.067234084 0.2480947
00000000: 5a45 b7bc d59a 71bd 1f1e 32be a025 913e
00000010: 6e41 d83d be96 613d 06b2 89bd 890c 7e3e

l10.weight f4 [12, 8]
-0.0980769 -0.49744084 0.25787118 -0.029563934 0.37790078 0.17821965 0.2911824 0.3159626
-0.39613232 0.30823642 0.3057002 -0.23522878 -0.24926774 -0.33950186 0.10572994 -0.41557252
-0.6109724 0.28997916 -0.31030983 -0.20348324 -0.07256688 -0.27296174 0.01090478 -0.44703028
-0.40237346 0.26223868 0.2501317 -0.38964882 -0.08846478 -0.10491572 -0.25896302 -0.09760617
0.47710675 -0.72233015 0.22185358 -0.2703234 0.026117751 0.3947728 0.3681963 -0.2028815
0.25294855 -0.77805114 0.057039976 0.27392837 0.22203504 0.36652282 0.10058832 -0.048943456
0.14202806 -0.50556916 -0.22467655 0.26215813 0.4902603 0.042871542 -0.04329311 0.43412325
0.22696081 -0.83506376 -0.16776814 -0.19519415 -0.08159378 0.42142254 0.25352496 0.3620287
-0.64054286 0.23922966 -0.33500355 -0.4186684 0.011818856 0.054573234 -0.5115087 -0.3915153
-0.53843236 0.306497 0.29266033 0.015645387 -0.028712042 -0.28096542 -0.41137198 -0.19795202
-0.3766017 0.23574781 -0.0019178987 -0.057189606 0.032018226 -0.29062992 -0.32845035 -0.13236228
-0.4276233 0.19908161 0.28043798 0.09505783 0.18957852 -0.45027483 -0.00349605 0.0015531379
00000000: 8bdc c8bd 91b0 febe b107 843e 1030 f2bc
00000010: 367c c13e 367f 363e dc15 953e dac5 a13e
00000020: dbd1 cabe 2ad1 9d3e bd84 9c3e d0df 70be
00000030: 0b40 7fbe 30d3 adbe f088 d83d ecc5 d4be
00000040: b068 1cbf 2678 943e eee0 9ebe e95d 50be
00000050: f29d 94bd a4c1 8bbe f6a9 323c 27e1 e4be
00000060: e503 cebe 2644 863e 4311 803e 0d80 c7be
00000070: 062d b5bd 0ede d6bd cd96 84be bee5 c7bd
00000080: 5647 f43e a1ea 38bf 962d 633e d467 8abe
00000090: e5f4 d53c a91f ca3e 3a84 bc3e 2bc0 4fbe
000000a0: 7982 813e 5c2e 47bf c0a2 693d 5740 8c3e
000000b0: 275d 633e e1a8 bb3e 4001 ce3d ef78 48bd
000000c0: ce6f 113e fb6c 01bf 9c11 66be 9739 863e
000000d0: 6603 fb3e 129a 2f3d 1e54 31bd 6745 de3e
000000e0: 6a68 683e bdc6 55bf 69cb 2bbe fae0 47be
000000f0: a41a a7bd b2c4 d73e 06ce 813e d35b b93e
00000100: 9efa 23bf 9ff8 743e 9685 abbe b45b d6be
00000110: e0a3 413c 2f88 5f3d 3cf2 02bf b274 c8be
00000120: b4d6 09bf 2ded 9c3e 93d7 953e c12a 803c
00000130: 8435 ebbc b3da 8fbe 599f d2be efb3 4abe
00000140: f0d1 c0be e067 713e 0062 fbba a63f 6abd
00000150: 8b25 033d 72cd 94be a52a a8be fa89 07be
00000160: 71f1 dabe 0ddc 4b3e 9195 8f3e aead c23d
00000170: df20 423e 6c8a e6be fc1d 65bb a992 cb3a

l10.bias f4 [12]
-0.0059453454 -0.39518496 -0.061948314 0.03246985 -0.2712845 0.03435828 0.23886056 -0.3048421
0.25488874 -0.24896942 0.085983604 0.33065632
00000000: 2cd1 c2bb af55 cabe 84bd 7dbd 1bff 043d
00000010: cde5 8abe 45bb 0c3d dd97 743e 4414 9cbe
00000020: c780 823e d7f1 7ebe 2c18 b03d c94b a93e
